lenet_MNIST.pth (torch, 91767 bytes, 8 tensors)

weight f4 [10, 1, 5, 5]
00000000: 3fc3 4cbf e44f 95be 185a c33d 8720 b43e
00000010: 4dac f83e a9b3 3bbf a557 20bf d18a c4bf
00000020: 928d 86bf 57ae 4dbe a459 43be a834 963e
00000030: ca58 0d3e 663f 47bf c0f6 1dbf 264a 93bc
00000040: 4f66 373e 4755 873e c5c4 273d 1f55 ecbe
00000050: cb25 103f bb4f 8c3e 69d6 913d a03e 1f3f
00000060: 129a ffbd c21e 0ebb 91e8 fabe 8595 babd
00000070: 2979 913e 7555 913e 644e f9be c61e 62bd
00000080: d8af aa3e 4d4b c23e 5519 5ebe 5734 75bf
00000090: 222a 393e ff65 cb3d 469f 4f3f 1c19 17bf
000000a0: dbaf edbe 7215 d6bd 7399 aa3e c575 413f
000000b0: 8dca b8bd c868 d1be ed06 e3be aa76 cabd
000000c0: 8906 8b3e 1adb ed3e 77c9 55bf 8dc1 32be
000000d0: 3208 993e 4982 1b3e a47a ff3e 2352 2dbf
000000e0: 0198 223f 6774 b63e 313f 5d3e cc3a e5bd
000000f0: 4648 f33e f10b 463f 84d6 78be 1839 74be
00000100: 73e6 d73d 1aa0 ac3e fdf9 7fbe 5169 92bd
00000110: 64a2 55be a259 113e 27dc bb3e e4ed e1be
00000120: df0a 11bc e640 2fbd 500c 2cbf c8c5 0c3d
00000130: 560d 113d 048d 36be 9dd5 e4bd 5d66 81bf
00000140: 5e42 633e 6eb9 f73e f307 d73d ae49 fbbe
00000150: d7f6 04bf edec 153f 760a 76bc b238 debd
00000160: cbb2 d7be 3f18 77be a524 263e 1aaa 01be
00000170: b897 8cbe 5c78 0bbf 42e9 3abe 29c4 fabc
00000180: fea6 11be 1c60 15be cdc1 253b 625c d43c
00000190: b1d9 263d f0af 2bbe ddfd 18be a6ab b8bd
000001a0: 1266 b3bd 1426 12be ddfd 10be 1e3d 183e
000001b0: d86b 29be 486d 34be 5c0f 5c3d b74d 27be
000001c0: 2609 6d3c d2fa a93d bb3a f0bd 4755 f5bd
000001d0: 08aa 353e d9b5 74bd 6497 01be b04e 0dbe
000001e0: daf3 46bd ef05 03be ab68 813d 98ce c23d
000001f0: ee21 42be 609c 9dbe 68c3 c23e 5128 ccbd
00000200: de9d a5bf c1e1 30bd 3ee5 7d3e 7121 7abe
00000210: 1158 55bf 1719 1ebe bf85 7f3f 8f2d fa3e
00000220: 50d9 f93e 8aab 8e3f d2d2 6d3f 00cf 123e
00000230: 4ba4 de3d c2bc 9e3e 0b70 cfbd b4bc c4be
00000240: 2cdd 12be 6374 f7be aed7 aebe eab6 cdbe
00000250: cc03 eabe 3b72 69be af24 733d b086 79be
00000260: e917 5c3c a490 023f aa5b 2c3f 62f0 123e
00000270: ab18 40be d16b 67bf 81b1 93bf 5bd7 2ebf
00000280: a5cd 543e d313 8e3f d873 a73e 4bfd 74be
00000290: 32e0 8e3e 67af 80be 0eb5 dd3e bce0 a13f
000002a0: 5c2d b73e a9d2 c7bb 2d60 96be badf 80bf
000002b0: e1af 0ebe 75c4 fe3e c04e e63e e186 e93e
000002c0: b727 cd3d e9ef 6fbe b3a1 e0be 5e99 03bf
000002d0: 1ca9 2dbd 6a78 ac3e c6ee 1c3f 344c 0cbe
000002e0: ac81 62bf 980a 0bbd 48a7 cabe bf08 8c3f
000002f0: 6da6 e83d c9ab 51bf 7d30 93bd f717 f1be
00000300: 1e16 6c3f 6a21 4a3e 3155 27be dd09 14bf
00000310: 3dee db3c 6c81 1bbd c5d2 033f b469 043f
00000320: f2e9 b33e d1c7 a6bd d68f 383e 931d 2b3e
00000330: de11 e03e 5ddf 57be 9944 333e 650d 043e
00000340: 7c75 7ebe 7d6f 863e 0df5 f3be 97b2 fc3e
00000350: 994d 943e e042 af3e 26c7 4c3e 7dcc 6abf
00000360: e97a b6bd 304e ce3e 885e d53e 17dd cabe
00000370: 8a85 31bf 72f9 99bf a9ad aebf d6e6 8bbf
00000380: f865 1fbf b378 32be a3b5 c93c 4bc9 183e
00000390: f370 03be 151f 42be 3bbe 333e 3d3d 173e
000003a0: 238d 43bf 2aa1 31bf 04aa 24bf 43b3 43be
000003b0: fc03 a9bf 9db2 32bf afb4 fdbd 5e83 f83e
000003c0: 017d 8ebf b9f1 1bbe 4287 173f fd22 423d
000003d0: e24e e93e 3508 66bf 38b6 983e b8d3 3dbe
000003e0: fc5e 6f3e f4fe ed3e
-0.7998542 -0.29162514 0.095386684 0.35181066 0.48568955 -0.73321015 -0.62633735 -1.5354863
-1.0511954 -0.20086037 -0.19077164 0.2933705 0.13803402 -0.77831113 -0.61704636 -0.017979693
0.17910121 0.2643225 0.04095914 -0.46158692 0.5630767 0.2740458 0.071209736 0.62204933
-0.124805585 -0.0021685814 -0.4900556 -0.0911055 0.2841275 0.2838551 -0.4869262 -0.05520513
0.33337283 0.37948075 -0.21689351 -0.9578299 0.18082479 0.099315636 0.81102407 -0.5902269
-0.4642323 -0.10453309 0.33320197 0.7557033 -0.090230085 -0.40900254 -0.4434122 -0.098859146
0.27153423 0.46456224 -0.83510536 -0.17456646 0.29889065 0.15186419 0.49898255 -0.67703456
0.6351319 0.35635683 0.21606137 -0.11192855 0.47516078 0.7736197 -0.24300581 -0.23849905
0.105420016 0.33715898 -0.24997707 -0.07148994 -0.20862728 0.14194348 0.366914 -0.4412681
-0.0088526895 -0.0427865 -0.6720629 0.034368306 0.03541311 -0.1782723 -0.11173556 -1.0109364
0.22193286 0.4838366 0.10499563 -0.4907965 -0.5193915 0.58564645 -0.0150171425 -0.108506575
-0.42128596 -0.24130343 0.16224916 -0.12662545 -0.27459502 -0.5448053 -0.18253043 -0.030611115
-0.14223859 -0.14587444 0.0025292516 0.025922958 0.04073495 -0.16766334 -0.14940591 -0.09017114
-0.08759703 -0.14272338 -0.14159341 0.14867064 -0.16545045 -0.17619812 0.053725585 -0.1633824
0.014467513 0.08299793 -0.11729952 -0.11979156 0.17740643 -0.059743736 -0.12655407 -0.13799548
-0.0485724 -0.12795232 0.06318792 0.09512061 -0.18958256 -0.30783367 0.38039708 -0.09968627
-1.2938802 -0.043184046 0.2479448 -0.2442682 -0.83337504 -0.15439259 0.99813455 0.48862883
0.4879861 1.11461 0.9289981 0.14336777 0.1087118 0.31003386 -0.101287924 -0.3842522
-0.14342183 -0.48330984 -0.34148926 -0.40178615 -0.45706022 -0.22797482 0.059361156 -0.24367785
0.013433435 0.51001954 0.6732737 0.14349511 -0.1875941 -0.9039889 -1.1538545 -0.68297356
0.20781572 1.10998 0.3270557 -0.23924749 0.27905422 -0.2513382 0.43302196 1.2646708
0.35776794 -0.0060981107 -0.2937025 -1.0068276 -0.1393428 0.4975926 0.44981956 0.45610717
0.10017341 -0.23431362 -0.43873367 -0.51405895 -0.042397603 0.3368562 0.6130184 -0.13700944
-0.88479114 -0.03394565 -0.3958075 1.0940169 0.11359868 -0.8190275 -0.07186983 -0.47088596
0.9222125 0.19739309 -0.16341092 -0.5782755 0.026847 -0.037965223 0.51493484 0.5172379
0.35139424 -0.08143581 0.18023619 0.167105 0.43763632 -0.210813 0.17506637 0.12895735
-0.24849504 0.26256934 -0.47647896 0.49355003 0.28965452 0.3423071 0.19997844 -0.91718274
-0.08910162 0.40294027 0.41673684 -0.39621803 -0.6934439 -1.202925 -1.3646747 -1.092982
-0.62264967 -0.17428856 0.024622744 0.14920537 -0.12836055 -0.1895717 0.17553036 0.14769454
-0.7638723 -0.6938654 -0.64321923 -0.19111352 -1.3204341 -0.6980379 -0.12387978 0.48537725
-1.1131898 -0.15228929 0.5919076 0.04739665 0.45567995 -0.8985627 0.29826522 -0.18537796
0.23376077 0.46483576

bias f4 [10]
00000000: b281 61bd 69a8 83bf 9db7 6bbf 9136 0abd
00000010: 14e6 18be e7e0 70bf 8fe2 a7bf b93a 69bf
00000020: c4bd f3bc 9cc4 c5bc
-0.055055328 -1.028577 -0.92077047 -0.033743445 -0.14931518 -0.94093174 -1.3116015 -0.9110523
-0.029753573 -0.024141602

weight f4 [20, 10, 5, 5]
00000000: e7ba e1bd 2c18 8c3c ed7f c43c 1ebf 553a
00000010: 25aa 873e 7c42 e6bd 07a9 26be 6822 2bba
00000020: dc4e edbd feed fb3e 5aa1 ccbc 82d4 4fbe
00000030: a9df 813e e350 b23d 4600 f53d 1f70 d5bd
00000040: 6320 12be 5a84 cabd 822a f53d 3296 563e
00000050: 7c89 94bc f0aa babe c704 a3be 339d 8fbd
00000060: a161 c5be bfa2 68bc cbd3 83bd 08dd ca3d
00000070: 352a 923e 0e6c 233e e79a 97bd 5367 a8bc
00000080: bd5d d9be 58f4 42be 22e9 20bd c524 fe3c
00000090: 9882 253e 99ea 393e 1c05 9bbe bf6f 97bb
000000a0: 4b1e c8bd 4f2f c3bc de72 54be f482 a1be
000000b0: 1e92 a7be e700 923e b673 8e3e 8d0f 293e
000000c0: 1995 4fbe 778c 95be 3937 8abd d8c4 a13b
000000d0: ba2e c8bd bc00 b0bd 2a61 993e 01d4 b63d
000000e0: 8be2 5ebd 2b34 4dbc f7ef acbe b6c1 d4be
000000f0: 52e4 6ebe 5b7b 4bbe 8189 983c 009a f9bc
00000100: 5179 a5be e84f 44be a60f 503e 862c 493e
00000110: a73d 0fbd 5add 083d fa65 87be 3422 5c3e
00000120: 12fe 5fbe 6ca6 77be 5aa6 49be 943f a23e
00000130: 67c2 c23d 3d7c 493e f39c e23e 27a9 a63e
00000140: 9956 1fbe 3e0e c6bd 2e0d 283d f374 b3be
00000150: c11e c2bd 3d4c 4a3e e166 b73d ab7d 60be
00000160: 1022 b5bd 9e6d 433e 017d 3dbc 838e 1cbe
00000170: 73ef fd3d c6bd 3c3c c1ff 63be ff6b 52be
00000180: b41e 4e3e a900 7c3e 9535 ae3e cdbe f6bd
00000190: 0113 993c add6 f13a 50ce 5dbd 883a 70bd
000001a0: 3170 01bd 4fe8 583d d8ac 06bd f5e6 edbc
000001b0: 1f96 46bd 65e9 21bd cda8 653d 5fb0 7abd
000001c0: 78f4 b0bb d80d 18bd f526 a9bb a65b 0dbc
000001d0: 7708 40bd 8e40 123d e6f4 45bc 9126 db3a
000001e0: c539 29b9 9421 eabc d0ff 463b fdbf bc3c
000001f0: 947d 6a3d 1831 c3be ccf6 47be 9960 95be
00000200: 908b 94bc fd0f d6bd 99f9 02be ef08 b8be
00000210: b905 bb3d 04c2 523e 3dd5 25be 52e9 cd3d
00000220: 5706 c9bd 040f 163e 0980 673e 9628 f9bc
00000230: 1b86 56be d29c 29bc 3a68 b33d 3b6d ccbc
00000240: cb37 0a3e adbb 16bf 6ac6 debe 3e86 acbd
00000250: e16a a93d 4213 af3d ad7e d3be 7731 35be
00000260: 8814 1fbe 61e2 d73d f6c0 bbbc 6e7e 803e
00000270: bc0c 9f3c a607 d9bc 5af5 39be 9f7a 183e
00000280: 850d 5b3e e021 1fbe ed19 a03d 3ffd 963e
00000290: ef81 103e f0e0 45be 3c71 8cbe d087 723d
000002a0: d140 9b3e 1054 adbb 944d 6fbe 432b 95be
000002b0: 23eb b6bd fd8d da3d 49a5 d5bc 3642 003e
000002c0: 0cad 5e3e 44e6 a8bc f5e6 18be 7d59 92be
000002d0: ccb9 2f3e 356b 303e b311 d0bd 0fbc 9dbe
000002e0: fd45 c53d ae33 abbe 34c6 86be 2784 8dbe
000002f0: 589f 8cbe e336 4e3d 9f0a 81be 3333 8cbd
00000300: e738 35be 8ab8 863d c8b4 613e 09a8 983e
00000310: 4869 5b3e 92b6 5bbd 75ba 6f3d cc99 67be
00000320: 54cc 3a3e d551 3ebd af3c 90bd d557 173e
00000330: a38a 9c3e 9ff6 93be deb3 7abe 5ffa f43d
00000340: cb91 953d 6c5f 6dbe a407 77be 6971 8dbe
00000350: 6086 3cbe 1188 4fbb 9df5 ca3d 6b89 47bd
00000360: 4c56 e3bd c639 f1bd 63c7 d23d bc4b ff3c
00000370: 84c9 3e3d a5f5 80bd 51bf b1be 76fe 243d
00000380: 8b92 273e 4d59 a63e 80a0 ab3e 37aa 6b3c
00000390: 4aa6 f7bd 1736 99be 59c8 9d3e 8a64 b13d
000003a0: 8e18 943d ba1a 973e 9981 883c e52b cebe
000003b0: 15a8 753e d45b ad3e 2ad7 cd3e f142 b73c
000003c0: 2f0f cbbd 90cd 883e f15d 9f3e d537 033e
000003d0: 8bb5 28be c933 f2bb 3347 dbbd 6753 aabe
000003e0: bc91 acbe ed94 eebe 4b27 59bd e86d 323e
000003f0: d458 f9bc c9bd 12be e715 b93d 5ade b9bd
-0.11021977 0.01710137 0.023986781 0.0008153784 0.26496997 -0.1124315 -0.16275416 -0.0006528259
-0.11587307 0.4920501 -0.024979282 -0.20295909 0.25365952 0.08706834 0.11962943 -0.10421776
-0.14270167 -0.09888525 0.11970998 0.20955732 -0.018131964 -0.3645854 -0.31839582 -0.07012405
-0.38551047 -0.014198958 -0.06436881 0.099054396 0.28547826 0.15959188 -0.07402592 -0.020557081
-0.4245433 -0.19038522 -0.039284833 0.031023392 0.16163099 0.18155898 -0.30277336 -0.0046214755
-0.09771403 -0.02382627 -0.20746943 -0.31545222 -0.32728666 0.28516313 0.27822655 0.16509838
-0.2027172 -0.2920873 -0.06748814 0.0049367957 -0.097745374 -0.0859389 0.29956943 0.08927155
-0.054415267 -0.012524645 -0.3377683 -0.4155404 -0.23329285 -0.19871275 0.018620254 -0.03046894
-0.3231912 -0.19171107 0.2031847 0.1964589 -0.034970906 0.033414222 -0.2644499 0.21497422
-0.21874264 -0.24184579 -0.19692364 0.3168913 0.095097356 0.196763 0.44260368 0.32550928
-0.15560378 -0.09670685 0.041028194 -0.35050163 -0.09478522 0.19755645 0.089551695 -0.21922939
-0.088443875 0.19084784 -0.011565448 -0.15288739 0.12399187 0.011519855 -0.22265531 -0.2054901
0.201289 0.24609627 0.34025255 -0.12048111 0.01868582 0.0018450819 -0.054151833 -0.05864957
-0.031601135 0.05295592 -0.03287968 -0.029040793 -0.04848301 -0.039529223 0.056069184 -0.061203357
-0.0054002367 -0.037122577 -0.0051621147 -0.008627808 -0.046883073 0.035706095 -0.012082314 0.0016719868
-0.00016138617 -0.028580464 0.0030364878 0.023040766 0.057248667 -0.38123393 -0.1952774 -0.2917526
-0.018132955 -0.10452268 -0.12790526 -0.35944316 0.09131951 0.20581824 -0.16194625 0.10054268
-0.09815662 0.14654166 0.22607435 -0.03041486 -0.20949595 -0.01035233 0.08760114 -0.024954429
0.13497846 -0.5888012 -0.43510753 -0.08424042 0.08272339 0.08548595 -0.41307583 -0.1769465
-0.15535176 0.10541225 -0.02291916 0.25096458 0.019415252 -0.026492905 -0.1816 0.14890526
0.21391876 -0.15540266 0.07817445 0.29490086 0.14112066 -0.19324088 -0.2743014 0.059211552
0.30322888 -0.005289562 -0.23369437 -0.2913457 -0.089315675 0.10671613 -0.02607979 0.12525257
0.217457 -0.020617612 -0.14931853 -0.285839 0.1716072 0.17228396 -0.10159626 -0.3080754
0.0963249 -0.33437866 -0.26323092 -0.27639887 -0.2746532 0.050345313 -0.25203416 -0.06845703
-0.17697488 0.06578167 0.22041619 0.298157 0.2142688 -0.05364091 0.05852743 -0.22617263
0.18242007 -0.04646476 -0.070428245 0.14779599 0.3057452 -0.28899094 -0.24482676 0.11961817
0.073031984 -0.23180932 -0.24124008 -0.27625588 -0.18410635 -0.0031666795 0.09910128 -0.048715036
-0.11100444 -0.117785975 0.10291936 0.031164043 0.0465789 -0.06296853 -0.34716275 0.040281735
0.16364495 0.32490006 0.3352089 0.014383844 -0.12092264 -0.2992408 0.30816916 0.086617544
0.07231246 0.29512578 0.01666336 -0.40267864 0.239899 0.33859122 0.4020322 0.022370787
-0.099150054 0.26719332 0.3112636 0.12814267 -0.16475503 -0.007391427 -0.107069395 -0.33266756
-0.33704937 -0.46597996 -0.05301599 0.17424738 -0.030437864 -0.1433021 0.09037381 -0.09075613

bias f4 [20]
00000000: 3207 18bf 97c5 64be 943d 43be 04ee eebe
00000010: 2358 543e 3b60 133d 52e9 6d3d 2503 aebe
00000020: 177b bebc e63b 04be d771 13bd 30e8 0abf
00000030: c3f5 d2be 81a3 8abe 7790 9cbe b2cb c7bb
00000040: 4fa4 6e3e e94c c83c 51ca 36bd ce66 65ba
-0.5938598 -0.22341 -0.19066459 -0.46665967 0.20736746 0.035980444 0.05808384 -0.33986774
-0.023252053 -0.12913474 -0.035997238 -0.5426054 -0.41203126 -0.2707787 -0.30578968 -0.0060972804
0.23304866 0.024450736 -0.044626538 -0.0008750976

weight f4 [50, 320]
00000000: 89de 543d 7bc6 fdbc 7026 0b3c 1e39 7dbe
00000010: 6ef8 383d 20c0 6ebd 5709 56be 04cf 303d
00000020: 33d8 483e 1644 603c 560c 513c 96b0 aa3d
00000030: 8a03 4ebe 1c00 1d3d bb49 093e 553f 7b3d
00000040: ff70 b73c 9005 9b3d f745 54bd 2dd8 44be
00000050: 7f07 ca3d 47a5 063d 61c6 1f3e 10c9 0bbd
00000060: 8ae2 fb3d 568c 85be caad 72be a081 913e
00000070: ef2a c73c f723 e6bd 19d7 903d b274 523e
00000080: fcf4 073e 70ac 343d c220 82bd 1333 8abe
00000090: b13d e03d 579c 05bd 6cdd 4dbe cc38 12bc
000000a0: bd46 59bd b85c 90be e617 8ebe 178c 7e3d
000000b0: c416 a83e e6d4 ac3d 42b7 6b3c 2409 1fbe
000000c0: c378 df3c beba c53c fc36 86bc 5706 d43d
000000d0: 6014 1fbe a694 f0bc 2fd7 303e d09a fabd
000000e0: fa3c b6be f767 073e 531f 3e3e ca60 66be
000000f0: be46 ebbd 0617 803e d658 1f3d 3abe 58be
00000100: c6ec 163e 4980 6ebe 04e4 65be 9b50 8bbd
00000110: 636c 87bd d473 45be 276b c33d d56e fb3d
00000120: 9d18 143e 85d8 6cbb 05b5 513d 965d 21bd
00000130: b73d 0b3e 4fcb 00be 5baf bb3d 45d8 a4bd
00000140: 311e ee3b 43d7 0cbe 1215 5dbe 0d3d 1b3e
00000150: 7c89 dcbd 37c6 a9bd e73b fd3d 468a 883d
00000160: d75d 6b3e 3c08 9b3e c2f5 c8bd 23f7 40be
00000170: 59a5 fe3c 0116 813d ed58 e7bd 4836 1dbd
00000180: fd67 9c3c ea2a 8f3d 459d 8b3e 80ec 2f3d
00000190: fbac acbd 8dcd 273e 7fad cbbd 8d33 b4be
000001a0: 92a3 36be f1b1 753d d383 0fbd e7c9 d3bd
000001b0: 26a6 313e 3b57 c53c 9966 3abe d081 e6bb
000001c0: a645 54bd 937c aabd f422 d33d 8a79 12be
000001d0: 6ca7 bdbc 1c50 03bd fb49 93bc f13c 39bd
000001e0: 473b 92bd e721 9639 9c18 b03d 1d72 2f3d
000001f0: cc95 8abe 5d19 043e 5eac 48bd 2e98 f53d
00000200: eedd dbbc ffb3 e2bd 71ce 2bbe af1b 9ebe
00000210: 0424 fdbc e417 d6bb 5516 033d 215f 943d
00000220: 7931 8ebd 3c8c 53be afe9 c43d 48e4 8d3d
00000230: 71bf 533e 5b13 903d fd93 ffbc 6c87 a3bd
00000240: 0ed9 843d 8372 a4bc 7179 103d 1e60 e2bd
00000250: 4d7f 913e e662 26be a902 c5bd 2c93 c8bd
00000260: c9d5 9c3d dff9 9cbe e3af 2e3d 90b9 893e
00000270: de64 0ebe 526d 8bbc bd43 e43d 0f75 d03d
00000280: 50bd 08be f04d a5bc 3b74 683a ab9a 2f3d
00000290: da62 023e a66f 3d3c 1694 f63b 0d93 103e
000002a0: 52e3 933e 397b 3bbc 7539 f93d 6612 073e
000002b0: 5c28 5f3d 4a31 4ebe 1686 0cbe 0237 7b3d
000002c0: dc7d 3dbc 4f24 ec3d 2aff 0f3d a0b4 74bc
000002d0: ce8f fdbd 01e0 68bc 8259 813d 99e4 0dbe
000002e0: ce63 29be e32c 3abe 00e2 c8bd 038a 913e
000002f0: adde 3abe e39e 843d 7882 933d 535e 843e
00000300: b4e0 4bbc b5fc f03c f6ab aebe 4cb1 9bbe
00000310: 7c4b 30be 83c2 153d 076b 833c f71a 2bbd
00000320: 1fcf 7a3d 2d72 773e 2007 9b3b 90c3 1f3e
00000330: a022 d1ba 9f5e ddbd 0a7e 1cbb bddf 4fbc
00000340: a50c 8c3e c92d df3d 9b9e 2bbe 07ba 3dbe
00000350: 2752 bd3d 38fe ff3d afc1 5cbe 0a0d 8cbe
00000360: 37bb 1cbe bf34 4c3e 39a8 04bc 5d95 0fbd
00000370: a37c 8dbe 2010 223e 171d 9fbd cec9 5bbc
00000380: fcbb 193c 7a71 6e3b 8324 52bd a614 adbe
00000390: caa2 22bb 2622 44bd d4ae 9ebc 6b15 fbbd
000003a0: 5e5d 28be a336 353d a0a0 623d 90f7 19bc
000003b0: adc4 1fbe d910 ac3b da6d f9bd 1d24 5f3e
000003c0: 77ec cb3d 0153 0bbc 7c4e 5c3b 8bd1 423e
000003d0: 0c28 453e fffd 9c3b f1d6 b63c 653d 273e
000003e0: 4dc0 75bd 05f4 1fbc 40c4 8cbe 5ad0 28be
000003f0: 8a41 17be 5e72 27be 7c25 fd3c 32ff a43e
0.05197004 -0.030978432 0.008493051 -0.2472882 0.045158796 -0.058288693 -0.20902 0.043166175
0.19613723 0.013688108 0.012759289 0.08334462 -0.20118538 0.038330182 0.13407032 0.061339695
0.022392748 0.0756942 -0.051824536 -0.1922309 0.09864711 0.032872465 0.1560302 -0.034127295
0.12299068 -0.2608363 -0.23699108 0.2841921 0.024312465 -0.112373285 0.070722766 0.20552328
0.13277048 0.04410976 -0.06353904 -0.26992092 0.10949267 -0.0326198 -0.20103997 -0.008924674
-0.053045977 -0.2819574 -0.27752608 0.06214532 0.3282987 0.08439045 0.014386954 -0.1553083
0.027279263 0.024136897 -0.01638364 0.10352772 -0.15535116 -0.029367756 0.17269586 -0.122365594
-0.35593396 0.13223253 0.18566637 -0.2249786 -0.114881024 0.25017565 0.03890308 -0.21166316
0.1473876 -0.23291124 -0.22450262 -0.06802484 -0.0661247 -0.19282466 0.09541922 0.12276999
0.14462514 -0.0036139798 0.051198024 -0.03939589 0.13597761 -0.12577556 0.09164306 -0.08049063
0.0072667827 -0.13753991 -0.21590069 0.15160008 -0.107684106 -0.082897596 0.12364941 0.066669986
0.22985016 0.3027972 -0.098124996 -0.18844275 0.031084703 0.06303025 -0.11296258 -0.038381845
0.019092554 0.06990607 0.27268425 0.042950153 -0.08431431 0.16387005 -0.09945201 -0.3519558
-0.17835835 0.05998415 -0.035037827 -0.10341244 0.17348537 0.024089446 -0.182032 -0.007034518
-0.051824234 -0.08324542 0.10309401 -0.14304176 -0.023151122 -0.03205882 -0.017979613 -0.045224134
-0.071402125 0.0002863549 0.08598444 0.042833436 -0.2706741 0.129003 -0.048992507 0.119919166
-0.026839223 -0.11069488 -0.1677797 -0.30880496 -0.030900963 -0.0065336097 0.03200372 0.07244707
-0.0694303 -0.20658964 0.09614884 0.06928307 0.20678498 0.07034942 -0.031198496 -0.07984814
0.064867124 -0.020074135 0.035272066 -0.11053489 0.28417435 -0.16248664 -0.09619648 -0.09793696
0.07657964 -0.30659387 0.042648207 0.26899385 -0.13905665 -0.017019901 0.111457326 0.10178577
-0.13353467 -0.020178765 0.00088674173 0.042872112 0.12733021 0.011562264 0.0075249774 0.14118595
0.2888437 -0.011442953 0.12169162 0.13190612 0.05448185 -0.2013599 -0.13723025 0.061331756
-0.011565652 0.11530363 0.035155453 -0.0149356425 -0.12380944 -0.014213563 0.063159004 -0.13856734
-0.16541979 -0.18181185 -0.09808731 0.28425607 -0.18249007 0.06475618 0.07202619 0.25853214
-0.01244371 0.029417375 -0.3411557 -0.30408704 -0.17216295 0.036562454 0.016042246 -0.041773763
0.061232682 0.24164648 0.004731074 0.15601945 -0.0015955754 -0.10809063 -0.0023878836 -0.012687621
0.27353397 0.10897405 -0.16759722 -0.18527995 0.09244185 0.1249966 -0.2155826 -0.27353698
-0.15305792 0.19941996 -0.008096748 -0.035054553 -0.27634153 0.15826464 -0.0776922 -0.013414813
0.009383198 0.0036383555 -0.05130435 -0.33804816 -0.0024816268 -0.04788413 -0.019370474 -0.122599445
-0.16441867 0.04424156 0.055328965 -0.009397402 -0.1560237 0.005251032 -0.12179156 0.2179112
0.099572115 -0.008503676 0.0033616116 0.19025247 0.19253558 0.004791021 0.022319289 0.16332014
-0.059997845 -0.009762769 -0.27493477 -0.1648573 -0.14771095 -0.16352221 0.030901663 0.3222595

bias f4 [50]
00000000: b0a1 983e 9c12 2d3e a171 9c3d 592d f13d
00000010: 7d65 693e ffa0 fe3e b8e5 6d3f 5c43 cc3e
00000020: c248 f13e e963 08be 9b22 9c3e 4675 823e
00000030: f424 b63e 1ffc fb3e a479 82bc c30e 213f
00000040: 660b d63e c7db ea3c c5ab 8e3e 9923 843e
00000050: fdf5 c93e a3b4 f43d ccde 01bd 0af0 873e
00000060: 6e5e 853d 60ac afbd 1cb2 913e b565 ce3e
00000070: 4bdf 373e cbcf c53e 42b4 dc3d d3b1 d0bd
00000080: 379d 293f db20 0d3c ebe2 ae3d bff4 1bbe
00000090: 865a 1dbd 06f0 f73e b863 de3e 63ea 663e
000000a0: 4b9c 913e cc20 ad3d 1ea9 79bd a693 583e
000000b0: e6b0 4e3e 95e3 223f 9a2e 993e bb49 743e
000000c0: b17c 193f 2dc2 36be
0.29810858 0.1690163 0.076388605 0.117762275 0.22792621 0.49732205 0.9292865 0.3989514
0.47125822 -0.13319363 0.30495152 0.25480098 0.35575068 0.4921579 -0.015927143 0.6291315
0.4180557 0.028669251 0.27865425 0.2580841 0.39445487 0.11948516 -0.031706616 0.26550323
0.06512152 -0.085778 0.284562 0.4031197 0.17956273 0.38635096 0.10776569 -0.10190167
0.66255516 0.00861379 0.08539375 -0.15230082 -0.038416408 0.4842531 0.43435454 0.22550349
0.28439555 0.08453521 -0.0609523 0.21150073 0.20184669 0.6362851 0.29918367 0.23856251
0.5995589 -0.1784751

weight f4 [10, 50]
00000000: 03b4 833e 7b9c e2be ad2b efbe a9f1 b5be
00000010: 14f4 1e3e 7e74 f8be adcb ac3e 918f c53e
00000020: d0f9 01be 91e3 bbbe 8e9b b13e 41be a8be
00000030: 4f21 c2be 92b5 a9be 78dd 84be 71d2 14be
00000040: 7d67 843e f23b 83be 1e81 a23e 4f03 98be
00000050: 1934 d1be 3a83 273b 053e eabd 218b bb3e
00000060: 1f93 8c3e e044 83be 42a4 c63e d496 7e3e
00000070: ae4d 05bf 3aca 1f3f f61b 17bf a351 babe
00000080: c561 4ebe 8a9b 00bf 3a6d 8dbe d35b f5be
00000090: 03e9 533e 1951 96be 993f b13e a510 5e3e
000000a0: 5ea0 a3be a542 193e dc2f 58be 42b7 a63e
000000b0: a74b 6b3e 7636 a73e 2cc8 08bf dc98 843e
000000c0: 7ad8 24bf b158 8bbe db5d f3be b8c0 0fbe
000000d0: 79b4 98be 0be7 bbbe f9a1 00be ff53 983e
000000e0: 6cd5 c63e efb4 d0be ae37 8b3e e8da 77be
000000f0: 61eb 04bf d09e 583e b4c6 ed3e dd80 b93e
00000100: 547f 97be ef51 d03e 7c01 903e 8eef 70be
00000110: 4449 01bf 1fb0 7d3e 8e75 223e cff4 bcbe
00000120: 01f6 10bf 2362 2abf 295d edbe 45b8 bbbe
00000130: 6bb6 adbe afc0 81be 1f88 74be a0de eebe
00000140: 471a 20be c3f7 62be 7115 d63e cc16 01bf
00000150: abb1 50be 640e fdbe bfd2 eebe 81e2 e53e
00000160: c9e0 42bd fc84 ccbe 7da2 a73e e849 69be
00000170: 7282 39be e893 b5be e0fb eebe ca0f 9b3e
00000180: ad81 aa3e 14e1 a4be 6f8e fa3e 5f6a f2be
00000190: 6bd7 833e f85f 783d b08f ad3d bb15 023e
000001a0: f90e dfbd 8bae 23be 4a6a 83be 91e4 0cbd
000001b0: 46e6 a03e 6031 8f3e e539 76be b3e0 8f3e
000001c0: 5860 bf3e ec69 8abe 6f34 40be ef3f 84be
000001d0: 0bf9 f5bd ec2f b73e 6b2a 77bd 4642 66be
000001e0: f3d4 c7be 85bd 90bd c77e 01bf 5b1a 8fbe
000001f0: 966d a43e e28e a6be 5304 b1be 1a3b a33e
00000200: 504f debd 9e83 9abe 07fa 9bbc d3b2 a13e
00000210: f407 ff3d 3d66 81be 029f b63e e76c 8a3e
00000220: ea5e 903e 3417 c33e ab65 bcbe d4d9 803e
00000230: 0f2f 21be a56f 76be 19db b63e a433 993e
00000240: 7733 83be 0f66 a13e 8fe2 68be 04d0 2e3e
00000250: 7d42 48be 4008 aebe bf18 2abe 7d70 ea3d
00000260: abaa dcbd 0546 733e a3cc 7dbd 2560 6fbe
00000270: 73f7 debe a6e3 71be 410b a7be 4a9b 9a3e
00000280: 2869 c83e b3f2 8e3e 0090 a73e 6f90 dabe
00000290: d774 b53e 4654 d5be c5e3 b9be 7d4c 993e
000002a0: 2644 43be 55dd 9f3e e44c 13bd b632 01bf
000002b0: 8aa7 9bbe cd59 8bbe 5857 963e ab81 8ebe
000002c0: cf33 13be 8912 ce3e 0651 b9bd b7d9 043d
000002d0: 0674 c13e 453c ba3e 96ce d8be 9636 073d
000002e0: 7117 c03c ae6d 8dbd c429 503e b6e5 c6bd
000002f0: fba2 11be adaf dabe 04b3 b83e 0e1e ee3e
00000300: 4db3 723e 6ed8 bdbd 7c35 8a3e ba9d 99be
00000310: dd01 ac3e b629 9abe 0c4a 5fbe b8f5 d43e
00000320: adcf 94bd c069 da3e 3187 673e 8149 383e
00000330: ad48 7e3e 3d7c 683e 191a a2be 14d9 3dbd
00000340: e9e6 8d3e 8f03 cfbe 4405 28bf 92ac acbe
00000350: 5957 52bd d4a1 243e 1afb a8bd eb22 43bd
00000360: dbae 903e bc82 19be df05 0fbe f9a8 83be
00000370: eb2a c1bd 73b3 853e 4bc9 b23e 7999 c93e
00000380: b4c6 2bbe c895 df3e ee6c bebe a5a6 0ebe
00000390: 65f7 fc3e 6b08 14be 0b33 d13e 13d3 1dbf
000003a0: cbdf bc3e 99ee d43e b2f8 edbc 21fe c33e
000003b0: c557 803e db8b 6e3e 3b9e bfbe 2824 963e
000003c0: fb7f 2cbe 459a 84be 6ac5 383b 104c e7bd
000003d0: 32cd 90be 4e22 133e d9ae a73e 9b4b 673e
000003e0: f437 063f b89c 5bbe 177b 28be 0908 b7be
000003f0: 9294 743e 0b54 4d3e d74d 89be 501d e73d
0.25723276 -0.4426001 -0.4671301 -0.35535935 0.15522796 -0.48526376 0.33749142 0.38586095
-0.12692952 -0.36697057 0.3468899 -0.32957652 -0.37916037 -0.3314634 -0.25950217 -0.14533402
0.25860205 -0.25631672 0.31739134 -0.29690024 -0.4086006 0.0025560395 -0.114376105 0.36629584
0.27455994 -0.25638485 0.38797194 0.24862224 -0.52071655 0.6241795 -0.5902704 -0.3639041
-0.20154484 -0.50237334 -0.27622396 -0.4792162 0.20694356 -0.29358748 0.34618834 0.21686037
-0.31958288 0.14966829 -0.21112007 0.3256169 0.22978078 0.32658738 -0.5343044 0.25897872
-0.6439282 -0.27216104 -0.47532544 -0.1403836 -0.2982519 -0.3669971 -0.12561788 0.29751584
0.38834703 -0.4076304 0.27190918 -0.242046 -0.5192166 0.21154332 0.4644066 0.36231127
-0.2958933 0.4068751 0.28126132 -0.23528883 -0.5050242 0.24774216 0.15865156 -0.36905524
-0.5662537 -0.66555995 -0.46360138 -0.36664024 -0.33928236 -0.25342318 -0.23880051 -0.46654224
-0.15635024 -0.22164826 0.41813233 -0.5042541 -0.20380275 -0.49425042 -0.46645162 0.4489937
-0.047577653 -0.3994521 0.32741156 -0.22782099 -0.18116167 -0.35464406 -0.4667654 0.30285484
0.3330206 -0.3220297 0.48936793 -0.4734678 0.25750288 0.060638398 0.08474672 0.12703602
-0.10891528 -0.15984552 -0.2566703 -0.034397665 0.31425685 0.27967358 -0.24045523 0.2810112
0.37378192 -0.27033937 -0.18770002 -0.25830027 -0.12010392 0.3577875 -0.060343187 -0.22486219
-0.39029655 -0.07067398 -0.5058407 -0.27949795 0.32114857 -0.32530886 -0.34573612 0.31881028
-0.108549714 -0.3017854 -0.01904012 0.31581745 0.12452689 -0.25273314 0.35668188 0.2703621
0.28197414 0.3810364 -0.36796317 0.2516619 -0.15740608 -0.24066027 0.35714033 0.2992221
-0.25625202 0.31523177 -0.22742675 0.17071539 -0.19556613 -0.3399067 -0.16611002 0.11447237
-0.1077474 0.23757179 -0.061962735 -0.2337652 -0.43548164 -0.23621997 -0.32625774 0.301966
0.39142728 0.2791954 0.3272705 -0.4268832 0.35440704 -0.41665858 -0.36306587 0.29941168
-0.19068965 0.3122355 -0.035962 -0.50468004 -0.3040126 -0.2721695 0.29363513 -0.27833304
-0.14375232 0.40248516 -0.09048657 0.03243419 0.3778383 0.36374107 -0.42345113 0.03301104
0.023448678 -0.06905685 0.20328432 -0.09711783 -0.14222328 -0.42712155 0.36074078 0.46507305
0.2370121 -0.09269796 0.2699393 -0.30003148 0.33595172 -0.30109948 -0.2180559 0.4159372
-0.072661735 0.42658806 0.22610165 0.1799679 0.24832411 0.22703643 -0.31660536 -0.0463496
0.27715233 -0.40432402 -0.65633035 -0.3372541 -0.051352832 0.16077358 -0.08251019 -0.047640722
0.28258404 -0.14991277 -0.13967083 -0.25714853 -0.09432014 0.2611347 0.349192 0.39374903
-0.16775018 0.43668962 -0.37192482 -0.13930757 0.49407497 -0.14456336 0.40859255 -0.616502
0.3688949 0.41588286 -0.029049251 0.38279822 0.25066963 0.23295538 -0.37425408 0.2932446
-0.16845696 -0.25898948 0.002819384 -0.11293805 -0.28281552 0.14368555 0.32750586 0.22587435
0.5242913 -0.21446502 -0.16453205 -0.35748318 0.238848 0.20051591 -0.268172 0.11284888

bias f4 [10]
00000000: 1b84 103f 468e f33f d1ba e03e bba4 bcbe
00000010: 0421 64bf 4669 debe bae3 26bf 3802 6ebe
00000020: bfa1 79be 7701 a2be
0.56451577 1.9027793 0.4389253 -0.3684443 -0.8911288 -0.43439692 -0.65191233 -0.23243034
-0.24378107 -0.31641743
